…
  WEIGHT_DECAY: 0.0001
  WEIGHT_DECAY_BIAS: 0.0001
  WEIGHT_DECAY_NORM: 0.0
TEST:
  AUG:
    ENABLED: False
    FLIP: True
    MAX_SIZE: 4000
    MIN_SIZES: (400, 500, 600, 700, 800, 900, 1000, 1100, 1200)
  DETECTIONS_PER_IMAGE: 100
  EVAL_PERIOD: 0
  EXPECTED_RESULTS: []
  KEYPOINT_OKS_SIGMAS: []
  PRECISE_BN:
    ENABLED: False
    NUM_ITER: 200
VERSION: 2
VIS_PERIOD: 0
[12/13 06:13:32 detectron2]: Full config saved to ./output/config.yaml
[12/13 06:13:32 d2.utils.env]: Using a generated random seed 32053711
[12/13 06:13:36 d2.engine.defaults]: Model:
PanopticFPN(
  (backbone): FPN(
    (fpn_lateral2): Conv2d(256, 256, kernel_size=(1, 1), stride=(1, 1))
    (fpn_output2): Conv2d(256, 256, kernel_size=(3, 3), stride=(1, 1), padding=(1, 1))
    (fpn_lateral3): Conv2d(512, 256, kernel_size=(1, 1), stride=(1, 1))
    (fpn_output3): Conv2d(256, 256, kernel_size=(3, 3), stride=(1, 1), padding=(1, 1))
    (fpn_lateral4): Conv2d(1024, 256, kernel_size=(1, 1), stride=(1, 1))
    (fpn_output4): Conv2d(256, 256, kernel_size=(3, 3), stride=(1, 1), padding=(1, 1))
    (fpn_lateral5): Conv2d(2048, 256, kernel_size=(1, 1), stride=(1, 1))
    (fpn_output5): Conv2d(256, 256, kernel_size=(3, 3), stride=(1, 1), padding=(1, 1))
    (top_block): LastLevelMaxPool()
    (bottom_up): ResNet(
      (stem): BasicStem(
        (conv1): Sequential(
          (0): Conv2d(3, 32, kernel_size=(3, 3), stride=(2, 2), padding=(1, 1), bias=False)
          (1): FrozenBatchNorm2d(num_features=32, eps=1e-05)
          (2): ReLU(inplace=True)
          (3): Conv2d(32, 32, kernel_size=(3, 3), stride=(1, 1), padding=(1, 1), bias=False)
          (4): FrozenBatchNorm2d(num_features=32, eps=1e-05)
          (5): ReLU(inplace=True)
          (6): Conv2d(32, 64, kernel_size=(3, 3), stride=(1, 1), padding=(1, 1), bias=False)
        )
        (bn1): FrozenBatchNorm2d(num_features=64, eps=1e-05)
      )
      (res2): Sequential(
        (0): BottleneckBlock(
          (shortcut): Sequential(
            (0): AvgPool2d(kernel_size=1, stride=1, padding=0)
            (1): Conv2d(
              64, 256, kernel_size=(1, 1), stride=(1, 1), bias=False
              (norm): FrozenBatchNorm2d(num_features=256, eps=1e-05)
            )
          )
          (conv1): Conv2d(
            64, 104, kernel_size=(1, 1), stride=(1, 1), bias=False
            (norm): FrozenBatchNorm2d(num_features=104, eps=1e-05)
          )
          (pool): AvgPool2d(kernel_size=3, stride=1, padding=1)
          (convs): ModuleList(
            (0): Conv2d(26, 26, kernel_size=(3, 3), stride=(1, 1), padding=(1, 1), bias=False)
            (1): Conv2d(26, 26, kernel_size=(3, 3), stride=(1, 1), padding=(1, 1), bias=False)
            (2): Conv2d(26, 26, kernel_size=(3, 3), stride=(1, 1), padding=(1, 1), bias=False)
          )
          (bns): ModuleList(
            (0): FrozenBatchNorm2d(num_features=26, eps=1e-05)
            (1): FrozenBatchNorm2d(num_features=26, eps=1e-05)
            (2): FrozenBatchNorm2d(num_features=26, eps=1e-05)
          )
          (conv3): Conv2d(
            104, 256, kernel_size=(1, 1), stride=(1, 1), bias=False
            (norm): FrozenBatchNorm2d(num_features=256, eps=1e-05)
          )
        )
        (1): BottleneckBlock(
          (conv1): Conv2d(
            256, 104, kernel_size=(1, 1), stride=(1, 1), bias=False
            (norm): FrozenBatchNorm2d(num_features=104, eps=1e-05)
          )
          (convs): ModuleList(
            (0): Conv2d(26, 26, kernel_size=(3, 3), stride=(1, 1), padding=(1, 1), bias=False)
            (1): Conv2d(26, 26, kernel_size=(3, 3), stride=(1, 1), padding=(1, 1), bias=False)
            (2): Conv2d(26, 26, kernel_size=(3, 3), stride=(1, 1), padding=(1, 1), bias=False)
          )
          (bns): ModuleList(
            (0): FrozenBatchNorm2d(num_features=26, eps=1e-05)
            (1): FrozenBatchNorm2d(num_features=26, eps=1e-05)
            (2): FrozenBatchNorm2d(num_features=26, eps=1e-05)
          )
          (conv3): Conv2d(
            104, 256, kernel_size=(1, 1), stride=(1, 1), bias=False
            (norm): FrozenBatchNorm2d(num_features=256, eps=1e-05)
          )
        )
        (2): BottleneckBlock(
          (conv1): Conv2d(
            256, 104, kernel_size=(1, 1), stride=(1, 1), bias=False
            (norm): FrozenBatchNorm2d(num_features=104, eps=1e-05)
          )
          (convs): ModuleList(
            (0): Conv2d(26, 26, kernel_size=(3, 3), stride=(1, 1), padding=(1, 1), bias=False)
            (1): Conv2d(26, 26, kernel_size=(3, 3), stride=(1, 1), padding=(1, 1), bias=False)
            (2): Conv2d(26, 26, kernel_size=(3, 3), stride=(1, 1), padding=(1, 1), bias=False)
          )
          (bns): ModuleList(
            (0): FrozenBatchNorm2d(num_features=26, eps=1e-05)
            (1): FrozenBatchNorm2d(num_features=26, eps=1e-05)
            (2): FrozenBatchNorm2d(num_features=26, eps=1e-05)
          )
          (conv3): Conv2d(
            104, 256, kernel_size=(1, 1), stride=(1, 1), bias=False
            (norm): FrozenBatchNorm2d(num_features=256, eps=1e-05)
          )
        )
      )
      (res3): Sequential(
        (0): BottleneckBlock(
          (shortcut): Sequential(
            (0): AvgPool2d(kernel_size=2, stride=2, padding=0)
            (1): Conv2d(
              256, 512, kernel_size=(1, 1), stride=(1, 1), bias=False
              (norm): FrozenBatchNorm2d(num_features=512, eps=1e-05)
            )
          )
          (conv1): Conv2d(
            256, 208, kernel_size=(1, 1), stride=(2, 2), bias=False
            (norm): FrozenBatchNorm2d(num_features=208, eps=1e-05)
          )
          (pool): AvgPool2d(kernel_size=3, stride=1, padding=1)
          (convs): ModuleList(
            (0): Conv2d(52, 52, kernel_size=(3, 3), stride=(1, 1), padding=(1, 1), bias=False)
            (1): Conv2d(52, 52, kernel_size=(3, 3), stride=(1, 1), padding=(1, 1), bias=False)
            (2): Conv2d(52, 52, kernel_size=(3, 3), stride=(1, 1), padding=(1, 1), bias=False)
          )
          (bns): ModuleList(
            (0): FrozenBatchNorm2d(num_features=52, eps=1e-05)
            (1): FrozenBatchNorm2d(num_features=52, eps=1e-05)
            (2): FrozenBatchNorm2d(num_features=52, eps=1e-05)
          )
          (conv3): Conv2d(
            208, 512, kernel_size=(1, 1), stride=(1, 1), bias=False
            (norm): FrozenBatchNorm2d(num_features=512, eps=1e-05)
          )
        )
        (1): BottleneckBlock(
          (conv1): Conv2d(
            512, 208, kernel_size=(1, 1), stride=(1, 1), bias=False
            (norm): FrozenBatchNorm2d(num_features=208, eps=1e-05)
          )
          (convs): ModuleList(
            (0): Conv2d(52, 52, kernel_size=(3, 3), stride=(1, 1), padding=(1, 1), bias=False)
            (1): Conv2d(52, 52, kernel_size=(3, 3), stride=(1, 1), padding=(1, 1), bias=False)
            (2): Conv2d(52, 52, kernel_size=(3, 3), stride=(1, 1), padding=(1, 1), bias=False)
          )
          (bns): ModuleList(
            (0): FrozenBatchNorm2d(num_features=52, eps=1e-05)
            (1): FrozenBatchNorm2d(num_features=52, eps=1e-05)
            (2): FrozenBatchNorm2d(num_features=52, eps=1e-05)
          )
          (conv3): Conv2d(
            208, 512, kernel_size=(1, 1), stride=(1, 1), bias=False
            (norm): FrozenBatchNorm2d(num_features=512, eps=1e-05)
          )
        )
        (2): BottleneckBlock(
          (conv1): Conv2d(
            512, 208, kernel_size=(1, 1), stride=(1, 1), bias=False
            (norm): FrozenBatchNorm2d(num_features=208, eps=1e-05)
          )
          (convs): ModuleList(
            (0): Conv2d(52, 52, kernel_size=(3, 3), stride=(1, 1), padding=(1, 1), bias=False)
            (1): Conv2d(52, 52, kernel_size=(3, 3), stride=(1, 1), padding=(1, 1), bias=False)
            (2): Conv2d(52, 52, kernel_size=(3, 3), stride=(1, 1), padding=(1, 1), bias=False)
          )
          (bns): ModuleList(
            (0): FrozenBatchNorm2d(num_features=52, eps=1e-05)
            (1): FrozenBatchNorm2d(num_features=52, eps=1e-05)
            (2): FrozenBatchNorm2d(num_features=52, eps=1e-05)
          )
          (conv3): Conv2d(
            208, 512, kernel_size=(1, 1), stride=(1, 1), bias=False
            (norm): FrozenBatchNorm2d(num_features=512, eps=1e-05)
          )
        )
        (3): BottleneckBlock(
          (conv1): Conv2d(
            512, 208, kernel_size=(1, 1), stride=(1, 1), bias=False
            (norm): FrozenBatchNorm2d(num_features=208, eps=1e-05)
          )
          (convs): ModuleList(
            (0): Conv2d(52, 52, kernel_size=(3, 3), stride=(1, 1), padding=(1, 1), bias=False)
            (1): Conv2d(52, 52, kernel_size=(3, 3), stride=(1, 1), padding=(1, 1), bias=False)
            (2): Conv2d(52, 52, kernel_size=(3, 3), stride=(1, 1), padding=(1, 1), bias=False)
          )
          (bns): ModuleList(
            (0): FrozenBatchNorm2d(num_features=52, eps=1e-05)
            (1): FrozenBatchNorm2d(num_features=52, eps=1e-05)
            (2): FrozenBatchNorm2d(num_features=52, eps=1e-05)
          )
          (conv3): Conv2d(
            208, 512, kernel_size=(1, 1), stride=(1, 1), bias=False
            (norm): FrozenBatchNorm2d(num_features=512, eps=1e-05)
          )
        )
      )
      (res4): Sequential(
        (0): BottleneckBlock(
          (shortcut): Sequential(
            (0): AvgPool2d(kernel_size=2, stride=2, padding=0)
            (1): Conv2d(
              512, 1024, kernel_size=(1, 1), stride=(1, 1), bias=False
              (norm): FrozenBatchNorm2d(num_features=1024, eps=1e-05)
            )
          )
          (conv1): Conv2d(
            512, 416, kernel_size=(1, 1), stride=(2, 2), bias=False
            (norm): FrozenBatchNorm2d(num_features=416, eps=1e-05)
          )
          (pool): AvgPool2d(kernel_size=3, stride=1, padding=1)
          (convs): ModuleList(
            (0): Conv2d(104, 104, kernel_size=(3, 3), stride=(1, 1), padding=(1, 1), bias=False)
            (1): Conv2d(104, 104, kernel_size=(3, 3), stride=(1, 1), padding=(1, 1), bias=False)
            (2): Conv2d(104, 104, kernel_size=(3, 3), stride=(1, 1), padding=(1, 1), bias=False)
          )
          (bns): ModuleList(
            (0): FrozenBatchNorm2d(num_features=104, eps=1e-05)
            (1): FrozenBatchNorm2d(num_features=104, eps=1e-05)
            (2): FrozenBatchNorm2d(num_features=104, eps=1e-05)
          )
          (conv3): Conv2d(
            416, 1024, kernel_size=(1, 1), stride=(1, 1), bias=False
            (norm): FrozenBatchNorm2d(num_features=1024, eps=1e-05)
          )
        )
        (1): BottleneckBlock(
          (conv1): Conv2d(
            1024, 416, kernel_size=(1, 1), stride=(1, 1), bias=False
            (norm): FrozenBatchNorm2d(num_features=416, eps=1e-05)
          )
          (convs): ModuleList(
            (0): Conv2d(104, 104, kernel_size=(3, 3), stride=(1, 1), padding=(1, 1), bias=False)
            (1): Conv2d(104, 104, kernel_size=(3, 3), stride=(1, 1), padding=(1, 1), bias=False)
            (2): Conv2d(104, 104, kernel_size=(3, 3), stride=(1, 1), padding=(1, 1), bias=False)
          )
          (bns): ModuleList(
            (0): FrozenBatchNorm2d(num_features=104, eps=1e-05)
            (1): FrozenBatchNorm2d(num_features=104, eps=1e-05)
            (2): FrozenBatchNorm2d(num_features=104, eps=1e-05)
          )
          (conv3): Conv2d(
            416, 1024, kernel_size=(1, 1), stride=(1, 1), bias=False
            (norm): FrozenBatchNorm2d(num_features=1024, eps=1e-05)
          )
        )
        (2): BottleneckBlock(
          (conv1): Conv2d(
            1024, 416, kernel_size=(1, 1), stride=(1, 1), bias=False
            (norm): FrozenBatchNorm2d(num_features=416, eps=1e-05)
          )
          (convs): ModuleList(
            (0): Conv2d(104, 104, kernel_size=(3, 3), stride=(1, 1), padding=(1, 1), bias=False)
            (1): Conv2d(104, 104, kernel_size=(3, 3), stride=(1, 1), padding=(1, 1), bias=False)
            (2): Conv2d(104, 104, kernel_size=(3, 3), stride=(1, 1), padding=(1, 1), bias=False)
          )
          (bns): ModuleList(
            (0): FrozenBatchNorm2d(num_features=104, eps=1e-05)
            (1): FrozenBatchNorm2d(num_features=104, eps=1e-05)
            (2): FrozenBatchNorm2d(num_features=104, eps=1e-05)
          )
          (conv3): Conv2d(
            416, 1024, kernel_size=(1, 1), stride=(1, 1), bias=False
            (norm): FrozenBatchNorm2d(num_features=1024, eps=1e-05)
          )
        )
        (3): BottleneckBlock(
          (conv1): Conv2d(
            1024, 416, kernel_size=(1, 1), stride=(1, 1), bias=False
            (norm): FrozenBatchNorm2d(num_features=416, eps=1e-05)
          )
          (convs): ModuleList(
            (0): Conv2d(104, 104, kernel_size=(3, 3), stride=(1, 1), padding=(1, 1), bias=False)
            (1): Conv2d(104, 104, kernel_size=(3, 3), stride=(1, 1), padding=(1, 1), bias=False)
            (2): Conv2d(104, 104, kernel_size=(3, 3), stride=(1, 1), padding=(1, 1), bias=False)
          )
          (bns): ModuleList(
            (0): FrozenBatchNorm2d(num_features=104, eps=1e-05)
            (1): FrozenBatchNorm2d(num_features=104, eps=1e-05)
            (2): FrozenBatchNorm2d(num_features=104, eps=1e-05)
          )
          (conv3): Conv2d(
            416, 1024, kernel_size=(1, 1), stride=(1, 1), bias=False
            (norm): FrozenBatchNorm2d(num_features=1024, eps=1e-05)
          )
        )
        (4): BottleneckBlock(
          (conv1): Conv2d(
            1024, 416, kernel_size=(1, 1), stride=(1, 1), bias=False
            (norm): FrozenBatchNorm2d(num_features=416, eps=1e-05)
          )
          (convs): ModuleList(
            (0): Conv2d(104, 104, kernel_size=(3, 3), stride=(1, 1), padding=(1, 1), bias=False)
            (1): Conv2d(104, 104, kernel_size=(3, 3), stride=(1, 1), padding=(1, 1), bias=False)
            (2): Conv2d(104, 104, kernel_size=(3, 3), stride=(1, 1), padding=(1, 1), bias=False)
          )
          (bns): ModuleList(
            (0): FrozenBatchNorm2d(num_features=104, eps=1e-05)
            (1): FrozenBatchNorm2d(num_features=104, eps=1e-05)
            (2): FrozenBatchNorm2d(num_features=104, eps=1e-05)
          )
          (conv3): Conv2d(
            416, 1024, kernel_size=(1, 1), stride=(1, 1), bias=False
            (norm): FrozenBatchNorm2d(num_features=1024, eps=1e-05)
          )
        )
        (5): BottleneckBlock(
          (conv1): Conv2d(
            1024, 416, kernel_size=(1, 1), stride=(1, 1), bias=False
            (norm): FrozenBatchNorm2d(num_features=416, eps=1e-05)
          )
          (convs): ModuleList(
            (0): Conv2d(104, 104, kernel_size=(3, 3), stride=(1, 1), padding=(1, 1), bias=False)
            (1): Conv2d(104, 104, kernel_size=(3, 3), stride=(1, 1), padding=(1, 1), bias=False)
            (2): Conv2d(104, 104, kernel_size=(3, 3), stride=(1, 1), padding=(1, 1), bias=False)
          )
          (bns): ModuleList(
            (0): FrozenBatchNorm2d(num_features=104, eps=1e-05)
            (1): FrozenBatchNorm2d(num_features=104, eps=1e-05)
            (2): FrozenBatchNorm2d(num_features=104, eps=1e-05)
          )
          (conv3): Conv2d(
            416, 1024, kernel_size=(1, 1), stride=(1, 1), bias=False
            (norm): FrozenBatchNorm2d(num_features=1024, eps=1e-05)
          )
        )
        (6): BottleneckBlock(
          (conv1): Conv2d(
            1024, 416, kernel_size=(1, 1), stride=(1, 1), bias=False
            (norm): FrozenBatchNorm2d(num_features=416, eps=1e-05)
          )
          (convs): ModuleList(
            (0): Conv2d(104, 104, kernel_size=(3, 3), stride=(1, 1), padding=(1, 1), bias=False)
            (1): Conv2d(104, 104, kernel_size=(3, 3), stride=(1, 1), padding=(1, 1), bias=False)
            (2): Conv2d(104, 104, kernel_size=(3, 3), stride=(1, 1), padding=(1, 1), bias=False)
          )
          (bns): ModuleList(
            (0): FrozenBatchNorm2d(num_features=104, eps=1e-05)
            (1): FrozenBatchNorm2d(num_features=104, eps=1e-05)
            (2): FrozenBatchNorm2d(num_features=104, eps=1e-05)
          )
          (conv3): Conv2d(
            416, 1024, kernel_size=(1, 1), stride=(1, 1), bias=False
            (norm): FrozenBatchNorm2d(num_features=1024, eps=1e-05)
          )
        )
        (7): BottleneckBlock(
          (conv1): Conv2d(
            1024, 416, kernel_size=(1, 1), stride=(1, 1), bias=False
            (norm): FrozenBatchNorm2d(num_features=416, eps=1e-05)
          )
          (convs): ModuleList(
            (0): Conv2d(104, 104, kernel_size=(3, 3), stride=(1, 1), padding=(1, 1), bias=False)
            (1): Conv2d(104, 104, kernel_size=(3, 3), stride=(1, 1), padding=(1, 1), bias=False)
            (2): Conv2d(104, 104, kernel_size=(3, 3), stride=(1, 1), padding=(1, 1), bias=False)
          )
          (bns): ModuleList(
            (0): FrozenBatchNorm2d(num_features=104, eps=1e-05)
            (1): FrozenBatchNorm2d(num_features=104, eps=1e-05)
            (2): FrozenBatchNorm2d(num_features=104, eps=1e-05)
          )
          (conv3): Conv2d(
            416, 1024, kernel_size=(1, 1), stride=(1, 1), bias=False
            (norm): FrozenBatchNorm2d(num_features=1024, eps=1e-05)
          )
        )
        (8): BottleneckBlock(
          (conv1): Conv2d(
            1024, 416, kernel_size=(1, 1), stride=(1, 1), bias=False
            (norm): FrozenBatchNorm2d(num_features=416, eps=1e-05)
          )
          (convs): ModuleList(
            (0): Conv2d(104, 104, kernel_size=(3, 3), stride=(1, 1), padding=(1, 1), bias=False)
            (1): Conv2d(104, 104, kernel_size=(3, 3), stride=(1, 1), padding=(1, 1), bias=False)
            (2): Conv2d(104, 104, kernel_size=(3, 3), stride=(1, 1), padding=(1, 1), bias=False)
          )
          (bns): ModuleList(
            (0): FrozenBatchNorm2d(num_features=104, eps=1e-05)
            (1): FrozenBatchNorm2d(num_features=104, eps=1e-05)
            (2): FrozenBatchNorm2d(num_features=104, eps=1e-05)
          )
          (conv3): Conv2d(
            416, 1024, kernel_size=(1, 1), stride=(1, 1), bias=False
            (norm): FrozenBatchNorm2d(num_features=1024, eps=1e-05)
          )
        )
        (9): BottleneckBlock(
          (conv1): Conv2d(
            1024, 416, kernel_size=(1, 1), stride=(1, 1), bias=False
            (norm): FrozenBatchNorm2d(num_features=416, eps=1e-05)
          )
          (convs): ModuleList(
            (0): Conv2d(104, 104, kernel_size=(3, 3), stride=(1, 1), padding=(1, 1), bias=False)
            (1): Conv2d(104, 104, kernel_size=(3, 3), stride=(1, 1), padding=(1, 1), bias=False)
            (2): Conv2d(104, 104, kernel_size=(3, 3), stride=(1, 1), padding=(1, 1), bias=False)
          )
          (bns): ModuleList(
            (0): FrozenBatchNorm2d(num_features=104, eps=1e-05)
            (1): FrozenBatchNorm2d(num_features=104, eps=1e-05)
            (2): FrozenBatchNorm2d(num_features=104, eps=1e-05)
          )
          (conv3): Conv2d(
            416, 1024, kernel_size=(1, 1), stride=(1, 1), bias=False
            (norm): FrozenBatchNorm2d(num_features=1024, eps=1e-05)
          )
        )
        (10): BottleneckBlock(
          (conv1): Conv2d(
            1024, 416, kernel_size=(1, 1), stride=(1, 1), bias=False
            (norm): FrozenBatchNorm2d(num_features=416, eps=1e-05)
          )
          (convs): ModuleList(
            (0): Conv2d(104, 104, kernel_size=(3, 3), stride=(1, 1), padding=(1, 1), bias=False)
            (1): Conv2d(104, 104, kernel_size=(3, 3), stride=(1, 1), padding=(1, 1), bias=False)
            (2): Conv2d(104, 104, kernel_size=(3, 3), stride=(1, 1), padding=(1, 1), bias=False)
          )
          (bns): ModuleList(
            (0): FrozenBatchNorm2d(num_features=104, eps=1e-05)
            (1): FrozenBatchNorm2d(num_features=104, eps=1e-05)
            (2): FrozenBatchNorm2d(num_features=104, eps=1e-05)
          )
          (conv3): Conv2d(
            416, 1024, kernel_size=(1, 1), stride=(1, 1), bias=False
            (norm): FrozenBatchNorm2d(num_features=1024, eps=1e-05)
          )
        )
        (11): BottleneckBlock(
          (conv1): Conv2d(
            1024, 416, kernel_size=(1, 1), stride=(1, 1), bias=False
            (norm): FrozenBatchNorm2d(num_features=416, eps=1e-05)
          )
          (convs): ModuleList(
            (0): Conv2d(104, 104, kernel_size=(3, 3), stride=(1, 1), padding=(1, 1), bias=False)
            (1): Conv2d(104, 104, kernel_size=(3, 3), stride=(1, 1), padding=(1, 1), bias=False)
            (2): Conv2d(104, 104, kernel_size=(3, 3), stride=(1, 1), padding=(1, 1), bias=False)
          )
          (bns): ModuleList(
            (0): FrozenBatchNorm2d(num_features=104, eps=1e-05)
            (1): FrozenBatchNorm2d(num_features=104, eps=1e-05)
            (2): FrozenBatchNorm2d(num_features=104, eps=1e-05)
          )
          (conv3): Conv2d(
            416, 1024, kernel_size=(1, 1), stride=(1, 1), bias=False
            (norm): FrozenBatchNorm2d(num_features=1024, eps=1e-05)
          )
        )
        (12): BottleneckBlock(
          (conv1): Conv2d(
            1024, 416, kernel_size=(1, 1), stride=(1, 1), bias=False
            (norm): FrozenBatchNorm2d(num_features=416, eps=1e-05)
          )
          (convs): ModuleList(
            (0): Conv2d(104, 104, kernel_size=(3, 3), stride=(1, 1), padding=(1, 1), bias=False)
            (1): Conv2d(104, 104, kernel_size=(3, 3), stride=(1, 1), padding=(1, 1), bias=False)
            (2): Conv2d(104, 104, kernel_size=(3, 3), stride=(1, 1), padding=(1, 1), bias=False)
          )
          (bns): ModuleList(
            (0): FrozenBatchNorm2d(num_features=104, eps=1e-05)
            (1): FrozenBatchNorm2d(num_features=104, eps=1e-05)
            (2): FrozenBatchNorm2d(num_features=104, eps=1e-05)
          )
          (conv3): Conv2d(
            416, 1024, kernel_size=(1, 1), stride=(1, 1), bias=False
            (norm): FrozenBatchNorm2d(num_features=1024, eps=1e-05)
          )
        )
        (13): BottleneckBlock(
          (conv1): Conv2d(
            1024, 416, kernel_size=(1, 1), stride=(1, 1), bias=False
            (norm): FrozenBatchNorm2d(num_features=416, eps=1e-05)
          )
          (convs): ModuleList(
            (0): Conv2d(104, 104, kernel_size=(3, 3), stride=(1, 1), padding=(1, 1), bias=False)
            (1): Conv2d(104, 104, kernel_size=(3, 3), stride=(1, 1), padding=(1, 1), bias=False)
            (2): Conv2d(104, 104, kernel_size=(3, 3), stride=(1, 1), padding=(1, 1), bias=False)
          )
          (bns): ModuleList(
            (0): FrozenBatchNorm2d(num_features=104, eps=1e-05)
            (1): FrozenBatchNorm2d(num_features=104, eps=1e-05)
            (2): FrozenBatchNorm2d(num_features=104, eps=1e-05)
          )
          (conv3): Conv2d(
            416, 1024, kernel_size=(1, 1), stride=(1, 1), bias=False
            (norm): FrozenBatchNorm2d(num_features=1024, eps=1e-05)
          )
        )
        (14): BottleneckBlock(
          (conv1): Conv2d(
            1024, 416, kernel_size=(1, 1), stride=(1, 1), bias=False
            (norm): FrozenBatchNorm2d(num_features=416, eps=1e-05)
          )
          (convs): ModuleList(
            (0): Conv2d(104, 104, kernel_size=(3, 3), stride=(1, 1), padding=(1, 1), bias=False)
            (1): Conv2d(104, 104, kernel_size=(3, 3), stride=(1, 1), padding=(1, 1), bias=False)
            (2): Conv2d(104, 104, kernel_size=(3, 3), stride=(1, 1), padding=(1, 1), bias=False)
          )
          (bns): ModuleList(
            (0): FrozenBatchNorm2d(num_features=104, eps=1e-05)
            (1): FrozenBatchNorm2d(num_features=104, eps=1e-05)
            (2): FrozenBatchNorm2d(num_features=104, eps=1e-05)
          )
          (conv3): Conv2d(
            416, 1024, kernel_size=(1, 1), stride=(1, 1), bias=False
            (norm): FrozenBatchNorm2d(num_features=1024, eps=1e-05)
          )
        )
        (15): BottleneckBlock(
          (conv1): Conv2d(
            1024, 416, kernel_size=(1, 1), stride=(1, 1), bias=False
            (norm): FrozenBatchNorm2d(num_features=416, eps=1e-05)
          )
          (convs): ModuleList(
            (0): Conv2d(104, 104, kernel_size=(3, 3), stride=(1, 1), padding=(1, 1), bias=False)
            (1): Conv2d(104, 104, kernel_size=(3, 3), stride=(1, 1), padding=(1, 1), bias=False)
            (2): Conv2d(104, 104, kernel_size=(3, 3), stride=(1, 1), padding=(1, 1), bias=False)
          )
          (bns): ModuleList(
            (0): FrozenBatchNorm2d(num_features=104, eps=1e-05)
            (1): FrozenBatchNorm2d(num_features=104, eps=1e-05)
            (2): FrozenBatchNorm2d(num_features=104, eps=1e-05)
          )
          (conv3): Conv2d(
            416, 1024, kernel_size=(1, 1), stride=(1, 1), bias=False
            (norm): FrozenBatchNorm2d(num_features=1024, eps=1e-05)
          )
        )
        (16): BottleneckBlock(
          (conv1): Conv2d(
            1024, 416, kernel_size=(1, 1), stride=(1, 1), bias=False
            (norm): FrozenBatchNorm2d(num_features=416, eps=1e-05)
          )
          (convs): ModuleList(
            (0): Conv2d(104, 104, kernel_size=(3, 3), stride=(1, 1), padding=(1, 1), bias=False)
            (1): Conv2d(104, 104, kernel_size=(3, 3), stride=(1, 1), padding=(1, 1), bias=False)
            (2): Conv2d(104, 104, kernel_size=(3, 3), stride=(1, 1), padding=(1, 1), bias=False)
          )
          (bns): ModuleList(
            (0): FrozenBatchNorm2d(num_features=104, eps=1e-05)
            (1): FrozenBatchNorm2d(num_features=104, eps=1e-05)
            (2): FrozenBatchNorm2d(num_features=104, eps=1e-05)
          )
          (conv3): Conv2d(
            416, 1024, kernel_size=(1, 1), stride=(1, 1), bias=False
            (norm): FrozenBatchNorm2d(num_features=1024, eps=1e-05)
          )
        )
        (17): BottleneckBlock(
          (conv1): Conv2d(
            1024, 416, kernel_size=(1, 1), stride=(1, 1), bias=False
            (norm): FrozenBatchNorm2d(num_features=416, eps=1e-05)
          )
          (convs): ModuleList(
            (0): Conv2d(104, 104, kernel_size=(3, 3), stride=(1, 1), padding=(1, 1), bias=False)
            (1): Conv2d(104, 104, kernel_size=(3, 3), stride=(1, 1), padding=(1, 1), bias=False)
            (2): Conv2d(104, 104, kernel_size=(3, 3), stride=(1, 1), padding=(1, 1), bias=False)
          )
          (bns): ModuleList(
            (0): FrozenBatchNorm2d(num_features=104, eps=1e-05)
            (1): FrozenBatchNorm2d(num_features=104, eps=1e-05)
            (2): FrozenBatchNorm2d(num_features=104, eps=1e-05)
          )
          (conv3): Conv2d(
            416, 1024, kernel_size=(1, 1), stride=(1, 1), bias=False
            (norm): FrozenBatchNorm2d(num_features=1024, eps=1e-05)
          )
        )
        (18): BottleneckBlock(
          (conv1): Conv2d(
            1024, 416, kernel_size=(1, 1), stride=(1, 1), bias=False
            (norm): FrozenBatchNorm2d(num_features=416, eps=1e-05)
          )
          (convs): ModuleList(
            (0): Conv2d(104, 104, kernel_size=(3, 3), stride=(1, 1), padding=(1, 1), bias=False)
            (1): Conv2d(104, 104, kernel_size=(3, 3), stride=(1, 1), padding=(1, 1), bias=False)
            (2): Conv2d(104, 104, kernel_size=(3, 3), stride=(1, 1), padding=(1, 1), bias=False)
          )
          (bns): ModuleList(
            (0): FrozenBatchNorm2d(num_features=104, eps=1e-05)
            (1): FrozenBatchNorm2d(num_features=104, eps=1e-05)
            (2): FrozenBatchNorm2d(num_features=104, eps=1e-05)
          )
          (conv3): Conv2d(
            416, 1024, kernel_size=(1, 1), stride=(1, 1), bias=False
            (norm): FrozenBatchNorm2d(num_features=1024, eps=1e-05)
          )
        )
        (19): BottleneckBlock(
          (conv1): Conv2d(
            1024, 416, kernel_size=(1, 1), stride=(1, 1), bias=False
            (norm): FrozenBatchNorm2d(num_features=416, eps=1e-05)
          )
          (convs): ModuleList(
            (0): Conv2d(104, 104, kernel_size=(3, 3), stride=(1, 1), padding=(1, 1), bias=False)
            (1): Conv2d(104, 104, kernel_size=(3, 3), stride=(1, 1), padding=(1, 1), bias=False)
            (2): Conv2d(104, 104, kernel_size=(3, 3), stride=(1, 1), padding=(1, 1), bias=False)
          )
          (bns): ModuleList(
            (0): FrozenBatchNorm2d(num_features=104, eps=1e-05)
            (1): FrozenBatchNorm2d(num_features=104, eps=1e-05)
            (2): FrozenBatchNorm2d(num_features=104, eps=1e-05)
          )
          (conv3): Conv2d(
            416, 1024, kernel_size=(1, 1), stride=(1, 1), bias=False
            (norm): FrozenBatchNorm2d(num_features=1024, eps=1e-05)
          )
        )
        (20): BottleneckBlock(
          (conv1): Conv2d(
            1024, 416, kernel_size=(1, 1), stride=(1, 1), bias=False
            (norm): FrozenBatchNorm2d(num_features=416, eps=1e-05)
          )
          (convs): ModuleList(
            (0): Conv2d(104, 104, kernel_size=(3, 3), stride=(1, 1), padding=(1, 1), bias=False)
            (1): Conv2d(104, 104, kernel_size=(3, 3), stride=(1, 1), padding=(1, 1), bias=False)
            (2): Conv2d(104, 104, kernel_size=(3, 3), stride=(1, 1), padding=(1, 1), bias=False)
          )
          (bns): ModuleList(
            (0): FrozenBatchNorm2d(num_features=104, eps=1e-05)
            (1): FrozenBatchNorm2d(num_features=104, eps=1e-05)
            (2): FrozenBatchNorm2d(num_features=104, eps=1e-05)
          )
          (conv3): Conv2d(
            416, 1024, kernel_size=(1, 1), stride=(1, 1), bias=False
            (norm): FrozenBatchNorm2d(num_features=1024, eps=1e-05)
          )
        )
        (21): BottleneckBlock(
          (conv1): Conv2d(
            1024, 416, kernel_size=(1, 1), stride=(1, 1), bias=False
            (norm): FrozenBatchNorm2d(num_features=416, eps=1e-05)
          )
          (convs): ModuleList(
            (0): Conv2d(104, 104, kernel_size=(3, 3), stride=(1, 1), padding=(1, 1), bias=False)
            (1): Conv2d(104, 104, kernel_size=(3, 3), stride=(1, 1), padding=(1, 1), bias=False)
            (2): Conv2d(104, 104, kernel_size=(3, 3), stride=(1, 1), padding=(1, 1), bias=False)
          )
          (bns): ModuleList(
            (0): FrozenBatchNorm2d(num_features=104, eps=1e-05)
            (1): FrozenBatchNorm2d(num_features=104, eps=1e-05)
            (2): FrozenBatchNorm2d(num_features=104, eps=1e-05)
          )
          (conv3): Conv2d(
            416, 1024, kernel_size=(1, 1), stride=(1, 1), bias=False
            (norm): FrozenBatchNorm2d(num_features=1024, eps=1e-05)
          )
        )
        (22): BottleneckBlock(
          (conv1): Conv2d(
            1024, 416, kernel_size=(1, 1), stride=(1, 1), bias=False
            (norm): FrozenBatchNorm2d(num_features=416, eps=1e-05)
          )
          (convs): ModuleList(
            (0): Conv2d(104, 104, kernel_size=(3, 3), stride=(1, 1), padding=(1, 1), bias=False)
            (1): Conv2d(104, 104, kernel_size=(3, 3), stride=(1, 1), padding=(1, 1), bias=False)
            (2): Conv2d(104, 104, kernel_size=(3, 3), stride=(1, 1), padding=(1, 1), bias=False)
          )
          (bns): ModuleList(
            (0): FrozenBatchNorm2d(num_features=104, eps=1e-05)
            (1): FrozenBatchNorm2d(num_features=104, eps=1e-05)
            (2): FrozenBatchNorm2d(num_features=104, eps=1e-05)
          )
          (conv3): Conv2d(
            416, 1024, kernel_size=(1, 1), stride=(1, 1), bias=False
            (norm): FrozenBatchNorm2d(num_features=1024, eps=1e-05)
          )
        )
      )
      (res5): Sequential(
        (0): BottleneckBlock(
          (shortcut): Sequential(
            (0): AvgPool2d(kernel_size=2, stride=2, padding=0)
            (1): Conv2d(
              1024, 2048, kernel_size=(1, 1), stride=(1, 1), bias=False
              (norm): FrozenBatchNorm2d(num_features=2048, eps=1e-05)
            )
          )
          (conv1): Conv2d(
            1024, 832, kernel_size=(1, 1), stride=(2, 2), bias=False
            (norm): FrozenBatchNorm2d(num_features=832, eps=1e-05)
          )
          (pool): AvgPool2d(kernel_size=3, stride=1, padding=1)
          (convs): ModuleList(
            (0): Conv2d(208, 208, kernel_size=(3, 3), stride=(1, 1), padding=(1, 1), bias=False)
            (1): Conv2d(208, 208, kernel_size=(3, 3), stride=(1, 1), padding=(1, 1), bias=False)
            (2): Conv2d(208, 208, kernel_size=(3, 3), stride=(1, 1), padding=(1, 1), bias=False)
          )
          (bns): ModuleList(
            (0): FrozenBatchNorm2d(num_features=208, eps=1e-05)
            (1): FrozenBatchNorm2d(num_features=208, eps=1e-05)
            (2): FrozenBatchNorm2d(num_features=208, eps=1e-05)
          )
          (conv3): Conv2d(
            832, 2048, kernel_size=(1, 1), stride=(1, 1), bias=False
            (norm): FrozenBatchNorm2d(num_features=2048, eps=1e-05)
          )
        )
        (1): BottleneckBlock(
          (conv1): Conv2d(
            2048, 832, kernel_size=(1, 1), stride=(1, 1), bias=False
            (norm): FrozenBatchNorm2d(num_features=832, eps=1e-05)
          )
          (convs): ModuleList(
            (0): Conv2d(208, 208, kernel_size=(3, 3), stride=(1, 1), padding=(1, 1), bias=False)
            (1): Conv2d(208, 208, kernel_size=(3, 3), stride=(1, 1), padding=(1, 1), bias=False)
            (2): Conv2d(208, 208, kernel_size=(3, 3), stride=(1, 1), padding=(1, 1), bias=False)
          )
          (bns): ModuleList(
            (0): FrozenBatchNorm2d(num_features=208, eps=1e-05)
            (1): FrozenBatchNorm2d(num_features=208, eps=1e-05)
            (2): FrozenBatchNorm2d(num_features=208, eps=1e-05)
          )
          (conv3): Conv2d(
            832, 2048, kernel_size=(1, 1), stride=(1, 1), bias=False
            (norm): FrozenBatchNorm2d(num_features=2048, eps=1e-05)
          )
        )
        (2): BottleneckBlock(
          (conv1): Conv2d(
            2048, 832, kernel_size=(1, 1), stride=(1, 1), bias=False
            (norm): FrozenBatchNorm2d(num_features=832, eps=1e-05)
          )
          (convs): ModuleList(
            (0): Conv2d(208, 208, kernel_size=(3, 3), stride=(1, 1), padding=(1, 1), bias=False)
            (1): Conv2d(208, 208, kernel_size=(3, 3), stride=(1, 1), padding=(1, 1), bias=False)
            (2): Conv2d(208, 208, kernel_size=(3, 3), stride=(1, 1), padding=(1, 1), bias=False)
          )
          (bns): ModuleList(
            (0): FrozenBatchNorm2d(num_features=208, eps=1e-05)
            (1): FrozenBatchNorm2d(num_features=208, eps=1e-05)
            (2): FrozenBatchNorm2d(num_features=208, eps=1e-05)
          )
          (conv3): Conv2d(
            832, 2048, kernel_size=(1, 1), stride=(1, 1), bias=False
            (norm): FrozenBatchNorm2d(num_features=2048, eps=1e-05)
          )
        )
      )
    )
  )
  (proposal_generator): RPN(
    (anchor_generator): DefaultAnchorGenerator(
      (cell_anchors): BufferList()
    )
    (rpn_head): StandardRPNHead(
      (conv): Conv2d(256, 256, kernel_size=(3, 3), stride=(1, 1), padding=(1, 1))
      (objectness_logits): Conv2d(256, 3, kernel_size=(1, 1), stride=(1, 1))
      (anchor_deltas): Conv2d(256, 12, kernel_size=(1, 1), stride=(1, 1))
    )
  )
  (roi_heads): StandardROIHeads(
    (box_pooler): ROIPooler(
      (level_poolers): ModuleList(
        (0): ROIAlign(output_size=(7, 7), spatial_scale=0.25, sampling_ratio=0, aligned=True)
        (1): ROIAlign(output_size=(7, 7), spatial_scale=0.125, sampling_ratio=0, aligned=True)
        (2): ROIAlign(output_size=(7, 7), spatial_scale=0.0625, sampling_ratio=0, aligned=True)
        (3): ROIAlign(output_size=(7, 7), spatial_scale=0.03125, sampling_ratio=0, aligned=True)
      )
    )
    (box_head): FastRCNNConvFCHead(
      (fc1): Linear(in_features=12544, out_features=1024, bias=True)
      (fc2): Linear(in_features=1024, out_features=1024, bias=True)
    )
    (box_predictor): FastRCNNOutputLayers(
      (cls_score): Linear(in_features=1024, out_features=81, bias=True)
      (bbox_pred): Linear(in_features=1024, out_features=320, bias=True)
    )
    (mask_pooler): ROIPooler(
      (level_poolers): ModuleList(
        (0): ROIAlign(output_size=(14, 14), spatial_scale=0.25, sampling_ratio=0, aligned=True)
        (1): ROIAlign(output_size=(14, 14), spatial_scale=0.125, sampling_ratio=0, aligned=True)
        (2): ROIAlign(output_size=(14, 14), spatial_scale=0.0625, sampling_ratio=0, aligned=True)
        (3): ROIAlign(output_size=(14, 14), spatial_scale=0.03125, sampling_ratio=0, aligned=True)
      )
    )
    (mask_head): MaskRCNNConvUpsampleHead(
      (mask_fcn1): Conv2d(256, 256, kernel_size=(3, 3), stride=(1, 1), padding=(1, 1))
      (mask_fcn2): Conv2d(256, 256, kernel_size=(3, 3), stride=(1, 1), padding=(1, 1))
      (mask_fcn3): Conv2d(256, 256, kernel_size=(3, 3), stride=(1, 1), padding=(1, 1))
      (mask_fcn4): Conv2d(256, 256, kernel_size=(3, 3), stride=(1, 1), padding=(1, 1))
      (deconv): ConvTranspose2d(256, 256, kernel_size=(2, 2), stride=(2, 2))
      (predictor): Conv2d(256, 80, kernel_size=(1, 1), stride=(1, 1))
    )
  )
  (sem_seg_head): SemSegFPNHead(
    (p2): Sequential(
      (0): Conv2d(
        256, 128, kernel_size=(3, 3), stride=(1, 1), padding=(1, 1), bias=False
        (norm): GroupNorm(32, 128, eps=1e-05, affine=True)
      )
    )
    (p3): Sequential(
      (0): Conv2d(
        256, 128, kernel_size=(3, 3), stride=(1, 1), padding=(1, 1), bias=False
        (norm): GroupNorm(32, 128, eps=1e-05, affine=True)
      )
      (1): Upsample(scale_factor=2.0, mode=bilinear)
    )
    (p4): Sequential(
      (0): Conv2d(
        256, 128, kernel_size=(3, 3), stride=(1, 1), padding=(1, 1), bias=False
        (norm): GroupNorm(32, 128, eps=1e-05, affine=True)
      )
      (1): Upsample(scale_factor=2.0, mode=bilinear)
      (2): Conv2d(
        128, 128, kernel_size=(3, 3), stride=(1, 1), padding=(1, 1), bias=False
        (norm): GroupNorm(32, 128, eps=1e-05, affine=True)
      )
      (3): Upsample(scale_factor=2.0, mode=bilinear)
    )
    (p5): Sequential(
      (0): Conv2d(
        256, 128, kernel_size=(3, 3), stride=(1, 1), padding=(1, 1), bias=False
        (norm): GroupNorm(32, 128, eps=1e-05, affine=True)
      )
      (1): Upsample(scale_factor=2.0, mode=bilinear)
      (2): Conv2d(
        128, 128, kernel_size=(3, 3), stride=(1, 1), padding=(1, 1), bias=False
        (norm): GroupNorm(32, 128, eps=1e-05, affine=True)
      )
      (3): Upsample(scale_factor=2.0, mode=bilinear)
      (4): Conv2d(
        128, 128, kernel_size=(3, 3), stride=(1, 1), padding=(1, 1), bias=False
        (norm): GroupNorm(32, 128, eps=1e-05, affine=True)
      )
      (5): Upsample(scale_factor=2.0, mode=bilinear)
    )
    (predictor): Conv2d(128, 54, kernel_size=(1, 1), stride=(1, 1))
  )
)
[12/13 06:13:54 d2.data.datasets.coco]: Loading datasets/coco/annotations/instances_train2017.json takes 17.71 seconds.
[12/13 06:13:55 d2.data.datasets.coco]: Loaded 118287 images in COCO format from datasets/coco/annotations/instances_train2017.json
[12/13 06:14:07 d2.data.datasets.coco]: Loaded 118287 images with semantic segmentation from datasets/coco/train2017
…
